…
E                             128)                                             
E       
E        max_pooling2d_1      (None, 16, 16,              0  conv2d_3[0][0]    
E        (MaxPooling2D)       128)                                             
E       
E        conv2d_4 (Conv2D)    (None, 16, 16,        295,168  max_pooling2d_1[ 
E                             256)                                             
E       
E        conv2d_5 (Conv2D)    (None, 16, 16,        590,080  conv2d_4[0][0]    
E                             256)                                             
E       
E        max_pooling2d_2      (None, 8, 8, 256)           0  conv2d_5[0][0]    
E        (MaxPooling2D)                                                        
E       
E        conv2d_8 (Conv2D)    (None, 8, 8, 128)     295,040  max_pooling2d_2[ 
E       
E        conv2d_16 (Conv2D)   (None, 8, 8, 128)     295,040  max_pooling2d_2[ 
E       
E        conv2d_9 (Conv2D)    (None, 8, 8, 128)     147,584  conv2d_8[0][0]    
E       
E        conv2d_17 (Conv2D)   (None, 8, 8, 128)     147,584  conv2d_16[0][0]   
E       
E        up_sampling2d        (None, 16, 16,              0  conv2d_9[0][0]    
E        (UpSampling2D)       128)                                             
E       
E        up_sampling2d_3      (None, 16, 16,              0  conv2d_17[0][0]   
E        (UpSampling2D)       128)                                             
E       
E        conv2d_10 (Conv2D)   (None, 16, 16,         73,792  up_sampling2d[0] 
…
E                             64)                                              
E       
E        up_sampling2d_2      (None, 64, 64,              0  conv2d_13[0][0]   
E        (UpSampling2D)       64)                                              
E       
E        up_sampling2d_5      (None, 64, 64,              0  conv2d_21[0][0]   
E        (UpSampling2D)       64)                                              
E       
E        get_item (GetItem)   (None, 32, 32,              0  up_sampling2d_1[ 
E                             60)                                              
E       
E        conv2d_7 (Conv2D)    (None, 64, 64, 1)         577  up_sampling2d_2[ 
E       
E        get_item_2           (None, 32, 32,              0  up_sampling2d_4[ 
E        (GetItem)            60)                                              
E       
E        conv2d_15 (Conv2D)   (None, 64, 64, 1)         577  up_sampling2d_5[ 
E       
E        conv2d_6 (Conv2D)    (None, 32, 32, 1)         541  get_item[0][0]    
E       
E        silu (Silu)          (None, 64, 64, 1)           0  conv2d_7[0][0]    
E       
E        conv2d_14 (Conv2D)   (None, 32, 32, 1)         541  get_item_2[0][0]  
E       
E        silu_1 (Silu)        (None, 64, 64, 1)           0  conv2d_15[0][0]   
E       
E        amp                  (None, 32, 32, 1)           0  conv2d_6[0][0]    
E        (ActivationLayer)                                                     
E       
E        center_mask_layer    (None, 64, 64, 1)           0  silu[0][0]        
E        (CenterMaskLayer)                                                     
E       
E        phi                  (None, 32, 32, 1)           0  conv2d_14[0][0]   
E        (ActivationLayer)                                                     
E       
E        center_mask_layer_1  (None, 64, 64, 1)           0  silu_1[0][0]      
E        (CenterMaskLayer)                                                     
E       
E        amp_padded           (None, 64, 64, 1)           0  amp[0][0]         
E        (ZeroPadding2D)                                                       
E       
E        multiply (Multiply)  (None, 64, 64, 1)           0  silu[0][0],       
E                                                            center_mask_laye 
E       
E        phase_padded         (None, 64, 64, 1)           0  phi[0][0]         
E        (ZeroPadding2D)                                                       
E       
E        multiply_1           (None, 64, 64, 1)           0  silu_1[0][0],     
E        (Multiply)                                          center_mask_laye 
E       
E        add (Add)            (None, 64, 64, 1)           0  amp_padded[0][0], 
E                                                            multiply[0][0]    
E       
E        add_1 (Add)          (None, 64, 64, 1)           0  phase_padded[0][ 
E                                                            multiply_1[0][0]  
E       
E        obj                  (None, 64, 64, 1)           0  add[0][0],        
E        (CombineComplexLay                                 add_1[0][0]       
E       
E        input_positions      (None, 1, 2, 1)             0  -                 
E        (InputLayer)                                                          
E       
E        padded_obj_2         (None, 74, 74, 1)           0  obj[0][0],        
E        (ReassemblePatches                                 input_positions[ 
E       
E        padded_objs_with_o  (None, 64, 64, 1)           0  padded_obj_2[0][ 
E        (ExtractPatchesPos                                 input_positions[ 
E       
E        probe_illumination   [(None, 64, 64,             0  padded_objs_with 
E        (ProbeIllumination)  1), (None, 64,                                   
E                             64, 1)]                                          
E       
E        pred_amplitude       [(None, 64, 64,             0  probe_illuminati 
E        (PadAndDiffractLay  1), (None, 64,                                   
E                             64, 1)]                                          
E       
E        pred_diff_channels   (None, 64, 64, 1)           0  pred_amplitude[0 
E        (FlatToChannelLaye                                                   
E       
E        intensity_scaler_i  (None, 64, 64, 1)           0  pred_diff_channe 
E        (IntensityScaler_i                                                   
E       
E        trimmed_obj          (None, 64, 64, 1)           0  padded_obj_2[0][ 
E        (TrimReconstructio                                                   
E       
E        pred_intensity       (None, 64, 64, 1)           0  intensity_scaler 
E        (SquareLayer)                                                         
E       
E        Total params: 2,331,772 (8.90 MB)
E        Trainable params: 2,331,772 (8.90 MB)
E        Non-trainable params: 0 (0.00 B)
E       None
E       Current Parameters:
E       --------------------
E       N: 64
E       amp_activation: sigmoid
E       backend: tensorflow
E       batch_size: 16
…
