…
Please pass an integer value for `reinterpreted_batch_ndims`. The current behavior corresponds to `reinterpreted_batch_ndims=tf.size(distribution.batch_shape_tensor()) - 1`.
Model: "model"
__________________________________________________________________________________________________
 Layer (type)                Output Shape                 Param #   Connected to                  
==================================================================================================
 input (InputLayer)          [(None, 64, 64, 1)]          0         []                            
                                                                                                  
 tf.math.truediv (TFOpLambd  (None, 64, 64, 1)            0         ['input[0][0]']               
 a)                                                                                               
                                                                                                  
 conv2d (Conv2D)             (None, 64, 64, 64)           640       ['tf.math.truediv[0][0]']     
                                                                                                  
 conv2d_1 (Conv2D)           (None, 64, 64, 64)           36928     ['conv2d[0][0]']              
                                                                                                  
 max_pooling2d (MaxPooling2  (None, 32, 32, 64)           0         ['conv2d_1[0][0]']            
 D)                                                                                               
                                                                                                  
 conv2d_2 (Conv2D)           (None, 32, 32, 128)          73856     ['max_pooling2d[0][0]']       
                                                                                                  
 conv2d_3 (Conv2D)           (None, 32, 32, 128)          147584    ['conv2d_2[0][0]']            
                                                                                                  
 max_pooling2d_1 (MaxPoolin  (None, 16, 16, 128)          0         ['conv2d_3[0][0]']            
 g2D)                                                                                             
                                                                                                  
 conv2d_4 (Conv2D)           (None, 16, 16, 256)          295168    ['max_pooling2d_1[0][0]']     
                                                                                                  
 conv2d_5 (Conv2D)           (None, 16, 16, 256)          590080    ['conv2d_4[0][0]']            
                                                                                                  
 max_pooling2d_2 (MaxPoolin  (None, 8, 8, 256)            0         ['conv2d_5[0][0]']            
 g2D)                                                                                             
                                                                                                  
 conv2d_8 (Conv2D)           (None, 8, 8, 128)            295040    ['max_pooling2d_2[0][0]']     
                                                                                                  
 conv2d_16 (Conv2D)          (None, 8, 8, 128)            295040    ['max_pooling2d_2[0][0]']     
                                                                                                  
 conv2d_9 (Conv2D)           (None, 8, 8, 128)            147584    ['conv2d_8[0][0]']            
                                                                                                  
 conv2d_17 (Conv2D)          (None, 8, 8, 128)            147584    ['conv2d_16[0][0]']           
                                                                                                  
 up_sampling2d (UpSampling2  (None, 16, 16, 128)          0         ['conv2d_9[0][0]']            
 D)                                                                                               
                                                                                                  
 up_sampling2d_3 (UpSamplin  (None, 16, 16, 128)          0         ['conv2d_17[0][0]']           
 g2D)                                                                                             
                                                                                                  
 conv2d_10 (Conv2D)          (None, 16, 16, 64)           73792     ['up_sampling2d[0][0]']       
                                                                                                  
 conv2d_18 (Conv2D)          (None, 16, 16, 64)           73792     ['up_sampling2d_3[0][0]']     
                                                                                                  
 conv2d_11 (Conv2D)          (None, 16, 16, 64)           36928     ['conv2d_10[0][0]']           
                                                                                                  
 conv2d_19 (Conv2D)          (None, 16, 16, 64)           36928     ['conv2d_18[0][0]']           
                                                                                                  
 up_sampling2d_1 (UpSamplin  (None, 32, 32, 64)           0         ['conv2d_11[0][0]']           
 g2D)                                                                                             
                                                                                                  
 up_sampling2d_4 (UpSamplin  (None, 32, 32, 64)           0         ['conv2d_19[0][0]']           
 g2D)                                                                                             
                                                                                                  
 tf.__operators__.getitem_1  (None, 32, 32, 4)            0         ['up_sampling2d_1[0][0]']     
  (SlicingOpLambda)                                                                               
                                                                                                  
 tf.__operators__.getitem_4  (None, 32, 32, 4)            0         ['up_sampling2d_4[0][0]']     
  (SlicingOpLambda)                                                                               
                                                                                                  
 conv2d_12 (Conv2D)          (None, 32, 32, 64)           2368      ['tf.__operators__.getitem_1[0
                                                                    ][0]']                        
                                                                                                  
 conv2d_20 (Conv2D)          (None, 32, 32, 64)           2368      ['tf.__operators__.getitem_4[0
                                                                    ][0]']                        
                                                                                                  
 conv2d_13 (Conv2D)          (None, 32, 32, 64)           36928     ['conv2d_12[0][0]']           
                                                                                                  
 conv2d_21 (Conv2D)          (None, 32, 32, 64)           36928     ['conv2d_20[0][0]']           
                                                                                                  
 up_sampling2d_2 (UpSamplin  (None, 64, 64, 64)           0         ['conv2d_13[0][0]']           
 g2D)                                                                                             
                                                                                                  
 up_sampling2d_5 (UpSamplin  (None, 64, 64, 64)           0         ['conv2d_21[0][0]']           
 g2D)                                                                                             
                                                                                                  
 conv2d_7 (Conv2D)           (None, 64, 64, 1)            577       ['up_sampling2d_2[0][0]']     
                                                                                                  
 conv2d_15 (Conv2D)          (None, 64, 64, 1)            577       ['up_sampling2d_5[0][0]']     
                                                                                                  
 tf.nn.silu (TFOpLambda)     (None, 64, 64, 1)            0         ['conv2d_7[0][0]']            
                                                                                                  
 tf.nn.silu_1 (TFOpLambda)   (None, 64, 64, 1)            0         ['conv2d_15[0][0]']           
                                                                                                  
 tf.compat.v1.shape (TFOpLa  (4,)                         0         ['tf.nn.silu[0][0]']          
 mbda)                                                                                            
                                                                                                  
…
 tf.__operators__.getitem_2  ()                           0         ['tf.compat.v1.shape[0][0]']  
  (SlicingOpLambda)                                                                               
                                                                                                  
 tf.__operators__.getitem_5  ()                           0         ['tf.compat.v1.shape_1[0][0]']
  (SlicingOpLambda)                                                                               
                                                                                                  
 tf.__operators__.getitem (  (None, 32, 32, 60)           0         ['up_sampling2d_1[0][0]']     
 SlicingOpLambda)                                                                                 
                                                                                                  
 tf.ones (TFOpLambda)        (None, 32, 32, 1)            0         ['tf.__operators__.getitem_2[0
                                                                    ][0]']                        
                                                                                                  
 tf.__operators__.getitem_3  (None, 32, 32, 60)           0         ['up_sampling2d_4[0][0]']     
  (SlicingOpLambda)                                                                               
                                                                                                  
 tf.ones_1 (TFOpLambda)      (None, 32, 32, 1)            0         ['tf.__operators__.getitem_5[0
                                                                    ][0]']                        
                                                                                                  
 conv2d_6 (Conv2D)           (None, 32, 32, 1)            541       ['tf.__operators__.getitem[0][
                                                                    0]']                          
                                                                                                  
 zero_padding2d (ZeroPaddin  (None, 64, 64, 1)            0         ['tf.ones[0][0]']             
 g2D)                                                                                             
                                                                                                  
 conv2d_14 (Conv2D)          (None, 32, 32, 1)            541       ['tf.__operators__.getitem_3[0
                                                                    ][0]']                        
                                                                                                  
 zero_padding2d_1 (ZeroPadd  (None, 64, 64, 1)            0         ['tf.ones_1[0][0]']           
 ing2D)                                                                                           
                                                                                                  
 amp (Lambda)                (None, 32, 32, 1)            0         ['conv2d_6[0][0]']            
                                                                                                  
 tf.math.subtract (TFOpLamb  (None, 64, 64, 1)            0         ['zero_padding2d[0][0]']      
 da)                                                                                              
                                                                                                  
 phi (Lambda)                (None, 32, 32, 1)            0         ['conv2d_14[0][0]']           
                                                                                                  
 tf.math.subtract_1 (TFOpLa  (None, 64, 64, 1)            0         ['zero_padding2d_1[0][0]']    
 mbda)                                                                                            
                                                                                                  
 amp_padded (ZeroPadding2D)  (None, 64, 64, 1)            0         ['amp[0][0]']                 
                                                                                                  
 tf.math.multiply (TFOpLamb  (None, 64, 64, 1)            0         ['tf.nn.silu[0][0]',          
 da)                                                                 'tf.math.subtract[0][0]']    
                                                                                                  
 phase_padded (ZeroPadding2  (None, 64, 64, 1)            0         ['phi[0][0]']                 
 D)                                                                                               
                                                                                                  
 tf.math.multiply_1 (TFOpLa  (None, 64, 64, 1)            0         ['tf.nn.silu_1[0][0]',        
 mbda)                                                               'tf.math.subtract_1[0][0]']  
                                                                                                  
 tf.__operators__.add (TFOp  (None, 64, 64, 1)            0         ['amp_padded[0][0]',          
 Lambda)                                                             'tf.math.multiply[0][0]']    
                                                                                                  
 tf.__operators__.add_1 (TF  (None, 64, 64, 1)            0         ['phase_padded[0][0]',        
 OpLambda)                                                           'tf.math.multiply_1[0][0]']  
                                                                                                  
 obj (Lambda)                (None, 64, 64, 1)            0         ['tf.__operators__.add[0][0]',
                                                                     'tf.__operators__.add_1[0][0]
                                                                    ']                            
                                                                                                  
 input_positions (InputLaye  [(None, 1, 2, 1)]            0         []                            
 r)                                                                                               
                                                                                                  
 padded_obj_2 (Lambda)       (None, 74, 74, 1)            0         ['obj[0][0]',                 
                                                                     'input_positions[0][0]']     
                                                                                                  
 padded_objs_with_offsets (  (None, None, None, 1)        0         ['padded_obj_2[0][0]',        
 Lambda)                                                             'input_positions[0][0]']     
…
DEBUG: Setting intensity_scale to tf.Tensor(988.2117, shape=(), dtype=float32) in params
Model: "model"
__________________________________________________________________________________________________
 Layer (type)                Output Shape                 Param #   Connected to                  
==================================================================================================
 input_1 (InputLayer)        [(None, 64, 64, 1)]          0         []                            
                                                                                                  
 conv2d (Conv2D)             (None, 64, 64, 64)           640       ['input_1[0][0]']             
                                                                                                  
 conv2d_1 (Conv2D)           (None, 64, 64, 64)           36928     ['conv2d[0][0]']              
                                                                                                  
 max_pooling2d (MaxPooling2  (None, 32, 32, 64)           0         ['conv2d_1[0][0]']            
 D)                                                                                               
                                                                                                  
 conv2d_2 (Conv2D)           (None, 32, 32, 128)          73856     ['max_pooling2d[0][0]']       
                                                                                                  
 conv2d_3 (Conv2D)           (None, 32, 32, 128)          147584    ['conv2d_2[0][0]']            
                                                                                                  
 max_pooling2d_1 (MaxPoolin  (None, 16, 16, 128)          0         ['conv2d_3[0][0]']            
 g2D)                                                                                             
                                                                                                  
 conv2d_4 (Conv2D)           (None, 16, 16, 256)          295168    ['max_pooling2d_1[0][0]']     
                                                                                                  
 conv2d_5 (Conv2D)           (None, 16, 16, 256)          590080    ['conv2d_4[0][0]']            
                                                                                                  
 max_pooling2d_2 (MaxPoolin  (None, 8, 8, 256)            0         ['conv2d_5[0][0]']            
 g2D)                                                                                             
                                                                                                  
 conv2d_6 (Conv2D)           (None, 8, 8, 256)            590080    ['max_pooling2d_2[0][0]']     
                                                                                                  
 conv2d_13 (Conv2D)          (None, 8, 8, 256)            590080    ['max_pooling2d_2[0][0]']     
                                                                                                  
 conv2d_7 (Conv2D)           (None, 8, 8, 256)            590080    ['conv2d_6[0][0]']            
                                                                                                  
 conv2d_14 (Conv2D)          (None, 8, 8, 256)            590080    ['conv2d_13[0][0]']           
                                                                                                  
 up_sampling2d (UpSampling2  (None, 16, 16, 256)          0         ['conv2d_7[0][0]']            
 D)                                                                                               
                                                                                                  
 up_sampling2d_3 (UpSamplin  (None, 16, 16, 256)          0         ['conv2d_14[0][0]']           
 g2D)                                                                                             
                                                                                                  
 conv2d_8 (Conv2D)           (None, 16, 16, 128)          295040    ['up_sampling2d[0][0]']       
                                                                                                  
 conv2d_15 (Conv2D)          (None, 16, 16, 128)          295040    ['up_sampling2d_3[0][0]']     
                                                                                                  
 conv2d_9 (Conv2D)           (None, 16, 16, 128)          147584    ['conv2d_8[0][0]']            
                                                                                                  
 conv2d_16 (Conv2D)          (None, 16, 16, 128)          147584    ['conv2d_15[0][0]']           
                                                                                                  
 up_sampling2d_1 (UpSamplin  (None, 32, 32, 128)          0         ['conv2d_9[0][0]']            
 g2D)                                                                                             
                                                                                                  
 up_sampling2d_4 (UpSamplin  (None, 32, 32, 128)          0         ['conv2d_16[0][0]']           
 g2D)                                                                                             
                                                                                                  
 conv2d_10 (Conv2D)          (None, 32, 32, 64)           73792     ['up_sampling2d_1[0][0]']     
                                                                                                  
 conv2d_17 (Conv2D)          (None, 32, 32, 64)           73792     ['up_sampling2d_4[0][0]']     
                                                                                                  
 conv2d_11 (Conv2D)          (None, 32, 32, 64)           36928     ['conv2d_10[0][0]']           
                                                                                                  
 conv2d_18 (Conv2D)          (None, 32, 32, 64)           36928     ['conv2d_17[0][0]']           
                                                                                                  
 up_sampling2d_2 (UpSamplin  (None, 64, 64, 64)           0         ['conv2d_11[0][0]']           
 g2D)                                                                                             
                                                                                                  
 up_sampling2d_5 (UpSamplin  (None, 64, 64, 64)           0         ['conv2d_18[0][0]']           
 g2D)                                                                                             
                                                                                                  
 conv2d_12 (Conv2D)          (None, 64, 64, 1)            577       ['up_sampling2d_2[0][0]']     
                                                                                                  
 conv2d_19 (Conv2D)          (None, 64, 64, 1)            577       ['up_sampling2d_5[0][0]']     
                                                                                                  
==================================================================================================
Total params: 4612418 (17.59 MB)
Trainable params: 4612418 (17.59 MB)
Non-trainable params: 0 (0.00 Byte)
__________________________________________________________________________________________________
…
2025-07-27 21:33:53,337 - INFO - Layer (type)                Output Shape                 Param #   Connected to
==================================================================================================
2025-07-27 21:33:53,337 - INFO - ==================================================================================================
 input (InputLayer)          [(None, 64, 64, 1)]          0         []                            
2025-07-27 21:33:53,338 - INFO - input (InputLayer)          [(None, 64, 64, 1)]          0         []
                                                                                                  
 tf.math.truediv (TFOpLambd  (None, 64, 64, 1)            0         ['input[0][0]']               
2025-07-27 21:33:53,338 - INFO - tf.math.truediv (TFOpLambd  (None, 64, 64, 1)            0         ['input[0][0]']
 a)                                                                                               
2025-07-27 21:33:53,338 - INFO - a)
                                                                                                  
 conv2d (Conv2D)             (None, 64, 64, 64)           640       ['tf.math.truediv[0][0]']     
2025-07-27 21:33:53,338 - INFO - conv2d (Conv2D)             (None, 64, 64, 64)           640       ['tf.math.truediv[0][0]']
                                                                                                  
 conv2d_1 (Conv2D)           (None, 64, 64, 64)           36928     ['conv2d[0][0]']              
2025-07-27 21:33:53,338 - INFO - conv2d_1 (Conv2D)           (None, 64, 64, 64)           36928     ['conv2d[0][0]']
                                                                                                  
 max_pooling2d (MaxPooling2  (None, 32, 32, 64)           0         ['conv2d_1[0][0]']            
2025-07-27 21:33:53,338 - INFO - max_pooling2d (MaxPooling2  (None, 32, 32, 64)           0         ['conv2d_1[0][0]']
 D)                                                                                               
2025-07-27 21:33:53,338 - INFO - D)
                                                                                                  
 conv2d_2 (Conv2D)           (None, 32, 32, 128)          73856     ['max_pooling2d[0][0]']       
2025-07-27 21:33:53,338 - INFO - conv2d_2 (Conv2D)           (None, 32, 32, 128)          73856     ['max_pooling2d[0][0]']
                                                                                                  
 conv2d_3 (Conv2D)           (None, 32, 32, 128)          147584    ['conv2d_2[0][0]']            
2025-07-27 21:33:53,338 - INFO - conv2d_3 (Conv2D)           (None, 32, 32, 128)          147584    ['conv2d_2[0][0]']
                                                                                                  
 max_pooling2d_1 (MaxPoolin  (None, 16, 16, 128)          0         ['conv2d_3[0][0]']            
2025-07-27 21:33:53,338 - INFO - max_pooling2d_1 (MaxPoolin  (None, 16, 16, 128)          0         ['conv2d_3[0][0]']
 g2D)                                                                                             
2025-07-27 21:33:53,338 - INFO - g2D)
                                                                                                  
 conv2d_4 (Conv2D)           (None, 16, 16, 256)          295168    ['max_pooling2d_1[0][0]']     
2025-07-27 21:33:53,338 - INFO - conv2d_4 (Conv2D)           (None, 16, 16, 256)          295168    ['max_pooling2d_1[0][0]']
                                                                                                  
 conv2d_5 (Conv2D)           (None, 16, 16, 256)          590080    ['conv2d_4[0][0]']            
2025-07-27 21:33:53,339 - INFO - conv2d_5 (Conv2D)           (None, 16, 16, 256)          590080    ['conv2d_4[0][0]']
                                                                                                  
 max_pooling2d_2 (MaxPoolin  (None, 8, 8, 256)            0         ['conv2d_5[0][0]']            
2025-07-27 21:33:53,339 - INFO - max_pooling2d_2 (MaxPoolin  (None, 8, 8, 256)            0         ['conv2d_5[0][0]']
 g2D)                                                                                             
2025-07-27 21:33:53,339 - INFO - g2D)
                                                                                                  
 conv2d_8 (Conv2D)           (None, 8, 8, 128)            295040    ['max_pooling2d_2[0][0]']     
2025-07-27 21:33:53,339 - INFO - conv2d_8 (Conv2D)           (None, 8, 8, 128)            295040    ['max_pooling2d_2[0][0]']
                                                                                                  
 conv2d_16 (Conv2D)          (None, 8, 8, 128)            295040    ['max_pooling2d_2[0][0]']     
2025-07-27 21:33:53,339 - INFO - conv2d_16 (Conv2D)          (None, 8, 8, 128)            295040    ['max_pooling2d_2[0][0]']
                                                                                                  
 conv2d_9 (Conv2D)           (None, 8, 8, 128)            147584    ['conv2d_8[0][0]']            
2025-07-27 21:33:53,339 - INFO - conv2d_9 (Conv2D)           (None, 8, 8, 128)            147584    ['conv2d_8[0][0]']
                                                                                                  
 conv2d_17 (Conv2D)          (None, 8, 8, 128)            147584    ['conv2d_16[0][0]']           
2025-07-27 21:33:53,339 - INFO - conv2d_17 (Conv2D)          (None, 8, 8, 128)            147584    ['conv2d_16[0][0]']
                                                                                                  
 up_sampling2d (UpSampling2  (None, 16, 16, 128)          0         ['conv2d_9[0][0]']            
2025-07-27 21:33:53,339 - INFO - up_sampling2d (UpSampling2  (None, 16, 16, 128)          0         ['conv2d_9[0][0]']
 D)                                                                                               
2025-07-27 21:33:53,339 - INFO - D)
                                                                                                  
 up_sampling2d_3 (UpSamplin  (None, 16, 16, 128)          0         ['conv2d_17[0][0]']           
2025-07-27 21:33:53,339 - INFO - up_sampling2d_3 (UpSamplin  (None, 16, 16, 128)          0         ['conv2d_17[0][0]']
 g2D)                                                                                             
2025-07-27 21:33:53,339 - INFO - g2D)
                                                                                                  
 conv2d_10 (Conv2D)          (None, 16, 16, 64)           73792     ['up_sampling2d[0][0]']       
2025-07-27 21:33:53,339 - INFO - conv2d_10 (Conv2D)          (None, 16, 16, 64)           73792     ['up_sampling2d[0][0]']
                                                                                                  
 conv2d_18 (Conv2D)          (None, 16, 16, 64)           73792     ['up_sampling2d_3[0][0]']     
2025-07-27 21:33:53,339 - INFO - conv2d_18 (Conv2D)          (None, 16, 16, 64)           73792     ['up_sampling2d_3[0][0]']
                                                                                                  
 conv2d_11 (Conv2D)          (None, 16, 16, 64)           36928     ['conv2d_10[0][0]']           
2025-07-27 21:33:53,339 - INFO - conv2d_11 (Conv2D)          (None, 16, 16, 64)           36928     ['conv2d_10[0][0]']
                                                                                                  
 conv2d_19 (Conv2D)          (None, 16, 16, 64)           36928     ['conv2d_18[0][0]']           
2025-07-27 21:33:53,339 - INFO - conv2d_19 (Conv2D)          (None, 16, 16, 64)           36928     ['conv2d_18[0][0]']
                                                                                                  
 up_sampling2d_1 (UpSamplin  (None, 32, 32, 64)           0         ['conv2d_11[0][0]']           
2025-07-27 21:33:53,339 - INFO - up_sampling2d_1 (UpSamplin  (None, 32, 32, 64)           0         ['conv2d_11[0][0]']
 g2D)                                                                                             
2025-07-27 21:33:53,339 - INFO - g2D)
                                                                                                  
 up_sampling2d_4 (UpSamplin  (None, 32, 32, 64)           0         ['conv2d_19[0][0]']           
2025-07-27 21:33:53,340 - INFO - up_sampling2d_4 (UpSamplin  (None, 32, 32, 64)           0         ['conv2d_19[0][0]']
 g2D)                                                                                             
2025-07-27 21:33:53,340 - INFO - g2D)
                                                                                                  
 tf.__operators__.getitem_1  (None, 32, 32, 4)            0         ['up_sampling2d_1[0][0]']     
2025-07-27 21:33:53,340 - INFO - tf.__operators__.getitem_1  (None, 32, 32, 4)            0         ['up_sampling2d_1[0][0]']
  (SlicingOpLambda)                                                                               
2025-07-27 21:33:53,340 - INFO - (SlicingOpLambda)
                                                                                                  
 tf.__operators__.getitem_4  (None, 32, 32, 4)            0         ['up_sampling2d_4[0][0]']     
2025-07-27 21:33:53,340 - INFO - tf.__operators__.getitem_4  (None, 32, 32, 4)            0         ['up_sampling2d_4[0][0]']
  (SlicingOpLambda)                                                                               
2025-07-27 21:33:53,340 - INFO - (SlicingOpLambda)
                                                                                                  
 conv2d_12 (Conv2D)          (None, 32, 32, 64)           2368      ['tf.__operators__.getitem_1[0
2025-07-27 21:33:53,340 - INFO - conv2d_12 (Conv2D)          (None, 32, 32, 64)           2368      ['tf.__operators__.getitem_1[0
                                                                    ][0]']                        
2025-07-27 21:33:53,340 - INFO - ][0]']
                                                                                                  
 conv2d_20 (Conv2D)          (None, 32, 32, 64)           2368      ['tf.__operators__.getitem_4[0
2025-07-27 21:33:53,340 - INFO - conv2d_20 (Conv2D)          (None, 32, 32, 64)           2368      ['tf.__operators__.getitem_4[0
                                                                    ][0]']                        
2025-07-27 21:33:53,340 - INFO - ][0]']
                                                                                                  
 conv2d_13 (Conv2D)          (None, 32, 32, 64)           36928     ['conv2d_12[0][0]']           
2025-07-27 21:33:53,340 - INFO - conv2d_13 (Conv2D)          (None, 32, 32, 64)           36928     ['conv2d_12[0][0]']
                                                                                                  
 conv2d_21 (Conv2D)          (None, 32, 32, 64)           36928     ['conv2d_20[0][0]']           
2025-07-27 21:33:53,340 - INFO - conv2d_21 (Conv2D)          (None, 32, 32, 64)           36928     ['conv2d_20[0][0]']
                                                                                                  
 up_sampling2d_2 (UpSamplin  (None, 64, 64, 64)           0         ['conv2d_13[0][0]']           
2025-07-27 21:33:53,340 - INFO - up_sampling2d_2 (UpSamplin  (None, 64, 64, 64)           0         ['conv2d_13[0][0]']
 g2D)                                                                                             
2025-07-27 21:33:53,340 - INFO - g2D)
                                                                                                  
 up_sampling2d_5 (UpSamplin  (None, 64, 64, 64)           0         ['conv2d_21[0][0]']           
2025-07-27 21:33:53,340 - INFO - up_sampling2d_5 (UpSamplin  (None, 64, 64, 64)           0         ['conv2d_21[0][0]']
 g2D)                                                                                             
2025-07-27 21:33:53,340 - INFO - g2D)
                                                                                                  
 conv2d_7 (Conv2D)           (None, 64, 64, 1)            577       ['up_sampling2d_2[0][0]']     
2025-07-27 21:33:53,340 - INFO - conv2d_7 (Conv2D)           (None, 64, 64, 1)            577       ['up_sampling2d_2[0][0]']
                                                                                                  
 conv2d_15 (Conv2D)          (None, 64, 64, 1)            577       ['up_sampling2d_5[0][0]']     
2025-07-27 21:33:53,340 - INFO - conv2d_15 (Conv2D)          (None, 64, 64, 1)            577       ['up_sampling2d_5[0][0]']
                                                                                                  
 tf.nn.silu (TFOpLambda)     (None, 64, 64, 1)            0         ['conv2d_7[0][0]']            
2025-07-27 21:33:53,340 - INFO - tf.nn.silu (TFOpLambda)     (None, 64, 64, 1)            0         ['conv2d_7[0][0]']
                                                                                                  
 tf.nn.silu_1 (TFOpLambda)   (None, 64, 64, 1)            0         ['conv2d_15[0][0]']           
2025-07-27 21:33:53,341 - INFO - tf.nn.silu_1 (TFOpLambda)   (None, 64, 64, 1)            0         ['conv2d_15[0][0]']
                                                                                                  
 tf.compat.v1.shape (TFOpLa  (4,)                         0         ['tf.nn.silu[0][0]']          
2025-07-27 21:33:53,341 - INFO - tf.compat.v1.shape (TFOpLa  (4,)                         0         ['tf.nn.silu[0][0]']
 mbda)                                                                                            
…
                                                                                                  
 tf.__operators__.getitem_5  ()                           0         ['tf.compat.v1.shape_1[0][0]']
2025-07-27 21:33:53,341 - INFO - tf.__operators__.getitem_5  ()                           0         ['tf.compat.v1.shape_1[0][0]']
  (SlicingOpLambda)                                                                               
2025-07-27 21:33:53,341 - INFO - (SlicingOpLambda)
                                                                                                  
 tf.__operators__.getitem (  (None, 32, 32, 60)           0         ['up_sampling2d_1[0][0]']     
2025-07-27 21:33:53,341 - INFO - tf.__operators__.getitem (  (None, 32, 32, 60)           0         ['up_sampling2d_1[0][0]']
 SlicingOpLambda)                                                                                 
2025-07-27 21:33:53,341 - INFO - SlicingOpLambda)
                                                                                                  
 tf.ones (TFOpLambda)        (None, 32, 32, 1)            0         ['tf.__operators__.getitem_2[0
2025-07-27 21:33:53,341 - INFO - tf.ones (TFOpLambda)        (None, 32, 32, 1)            0         ['tf.__operators__.getitem_2[0
                                                                    ][0]']                        
2025-07-27 21:33:53,341 - INFO - ][0]']
                                                                                                  
 tf.__operators__.getitem_3  (None, 32, 32, 60)           0         ['up_sampling2d_4[0][0]']     
2025-07-27 21:33:53,341 - INFO - tf.__operators__.getitem_3  (None, 32, 32, 60)           0         ['up_sampling2d_4[0][0]']
  (SlicingOpLambda)                                                                               
2025-07-27 21:33:53,341 - INFO - (SlicingOpLambda)
                                                                                                  
 tf.ones_1 (TFOpLambda)      (None, 32, 32, 1)            0         ['tf.__operators__.getitem_5[0
2025-07-27 21:33:53,341 - INFO - tf.ones_1 (TFOpLambda)      (None, 32, 32, 1)            0         ['tf.__operators__.getitem_5[0
                                                                    ][0]']                        
2025-07-27 21:33:53,341 - INFO - ][0]']
                                                                                                  
 conv2d_6 (Conv2D)           (None, 32, 32, 1)            541       ['tf.__operators__.getitem[0][
2025-07-27 21:33:53,341 - INFO - conv2d_6 (Conv2D)           (None, 32, 32, 1)            541       ['tf.__operators__.getitem[0][
                                                                    0]']                          
2025-07-27 21:33:53,341 - INFO - 0]']
                                                                                                  
 zero_padding2d (ZeroPaddin  (None, 64, 64, 1)            0         ['tf.ones[0][0]']             
2025-07-27 21:33:53,341 - INFO - zero_padding2d (ZeroPaddin  (None, 64, 64, 1)            0         ['tf.ones[0][0]']
 g2D)                                                                                             
2025-07-27 21:33:53,341 - INFO - g2D)
                                                                                                  
 conv2d_14 (Conv2D)          (None, 32, 32, 1)            541       ['tf.__operators__.getitem_3[0
2025-07-27 21:33:53,341 - INFO - conv2d_14 (Conv2D)          (None, 32, 32, 1)            541       ['tf.__operators__.getitem_3[0
                                                                    ][0]']                        
2025-07-27 21:33:53,341 - INFO - ][0]']
                                                                                                  
 zero_padding2d_1 (ZeroPadd  (None, 64, 64, 1)            0         ['tf.ones_1[0][0]']           
2025-07-27 21:33:53,342 - INFO - zero_padding2d_1 (ZeroPadd  (None, 64, 64, 1)            0         ['tf.ones_1[0][0]']
 ing2D)                                                                                           
2025-07-27 21:33:53,342 - INFO - ing2D)
                                                                                                  
 amp (Lambda)                (None, 32, 32, 1)            0         ['conv2d_6[0][0]']            
2025-07-27 21:33:53,342 - INFO - amp (Lambda)                (None, 32, 32, 1)            0         ['conv2d_6[0][0]']
                                                                                                  
 tf.math.subtract (TFOpLamb  (None, 64, 64, 1)            0         ['zero_padding2d[0][0]']      
2025-07-27 21:33:53,342 - INFO - tf.math.subtract (TFOpLamb  (None, 64, 64, 1)            0         ['zero_padding2d[0][0]']
 da)                                                                                              
2025-07-27 21:33:53,342 - INFO - da)
                                                                                                  
 phi (Lambda)                (None, 32, 32, 1)            0         ['conv2d_14[0][0]']           
2025-07-27 21:33:53,342 - INFO - phi (Lambda)                (None, 32, 32, 1)            0         ['conv2d_14[0][0]']
                                                                                                  
 tf.math.subtract_1 (TFOpLa  (None, 64, 64, 1)            0         ['zero_padding2d_1[0][0]']    
2025-07-27 21:33:53,342 - INFO - tf.math.subtract_1 (TFOpLa  (None, 64, 64, 1)            0         ['zero_padding2d_1[0][0]']
 mbda)                                                                                            
2025-07-27 21:33:53,342 - INFO - mbda)
                                                                                                  
 amp_padded (ZeroPadding2D)  (None, 64, 64, 1)            0         ['amp[0][0]']                 
2025-07-27 21:33:53,342 - INFO - amp_padded (ZeroPadding2D)  (None, 64, 64, 1)            0         ['amp[0][0]']
                                                                                                  
 tf.math.multiply (TFOpLamb  (None, 64, 64, 1)            0         ['tf.nn.silu[0][0]',          
2025-07-27 21:33:53,342 - INFO - tf.math.multiply (TFOpLamb  (None, 64, 64, 1)            0         ['tf.nn.silu[0][0]',
 da)                                                                 'tf.math.subtract[0][0]']    
2025-07-27 21:33:53,342 - INFO - da)                                                                 'tf.math.subtract[0][0]']
                                                                                                  
 phase_padded (ZeroPadding2  (None, 64, 64, 1)            0         ['phi[0][0]']                 
2025-07-27 21:33:53,342 - INFO - phase_padded (ZeroPadding2  (None, 64, 64, 1)            0         ['phi[0][0]']
 D)                                                                                               
2025-07-27 21:33:53,342 - INFO - D)
                                                                                                  
 tf.math.multiply_1 (TFOpLa  (None, 64, 64, 1)            0         ['tf.nn.silu_1[0][0]',        
2025-07-27 21:33:53,342 - INFO - tf.math.multiply_1 (TFOpLa  (None, 64, 64, 1)            0         ['tf.nn.silu_1[0][0]',
 mbda)                                                               'tf.math.subtract_1[0][0]']  
2025-07-27 21:33:53,342 - INFO - mbda)                                                               'tf.math.subtract_1[0][0]']
                                                                                                  
 tf.__operators__.add (TFOp  (None, 64, 64, 1)            0         ['amp_padded[0][0]',          
2025-07-27 21:33:53,342 - INFO - tf.__operators__.add (TFOp  (None, 64, 64, 1)            0         ['amp_padded[0][0]',
 Lambda)                                                             'tf.math.multiply[0][0]']    
2025-07-27 21:33:53,342 - INFO - Lambda)                                                             'tf.math.multiply[0][0]']
                                                                                                  
 tf.__operators__.add_1 (TF  (None, 64, 64, 1)            0         ['phase_padded[0][0]',        
2025-07-27 21:33:53,342 - INFO - tf.__operators__.add_1 (TF  (None, 64, 64, 1)            0         ['phase_padded[0][0]',
 OpLambda)                                                           'tf.math.multiply_1[0][0]']  
2025-07-27 21:33:53,342 - INFO - OpLambda)                                                           'tf.math.multiply_1[0][0]']
                                                                                                  
 obj (Lambda)                (None, 64, 64, 1)            0         ['tf.__operators__.add[0][0]',
2025-07-27 21:33:53,342 - INFO - obj (Lambda)                (None, 64, 64, 1)            0         ['tf.__operators__.add[0][0]',
                                                                     'tf.__operators__.add_1[0][0]
2025-07-27 21:33:53,342 - INFO - 'tf.__operators__.add_1[0][0]
                                                                    ']                            
2025-07-27 21:33:53,342 - INFO - ']
                                                                                                  
…
                                                                                                  
 pred_amplitude (Lambda)     ((None, 64, 64, 1),          0         ['probe_illumination[0][0]']  
2025-07-27 21:33:53,343 - INFO - pred_amplitude (Lambda)     ((None, 64, 64, 1),          0         ['probe_illumination[0][0]']
                              (None, 64, 64, 1))                                                  
2025-07-27 21:33:53,343 - INFO - (None, 64, 64, 1))
                                                                                                  
 pred_diff_channels (Lambda  (None, 64, 64, 1)            0         ['pred_amplitude[0][1]']      
2025-07-27 21:33:53,343 - INFO - pred_diff_channels (Lambda  (None, 64, 64, 1)            0         ['pred_amplitude[0][1]']
 )                                                                                                
2025-07-27 21:33:53,343 - INFO - )
                                                                                                  
 tf.math.multiply_2 (TFOpLa  (None, 64, 64, 1)            0         ['pred_diff_channels[0][0]']  
2025-07-27 21:33:53,343 - INFO - tf.math.multiply_2 (TFOpLa  (None, 64, 64, 1)            0         ['pred_diff_channels[0][0]']
 mbda)                                                                                            
2025-07-27 21:33:53,343 - INFO - mbda)
                                                                                                  
 trimmed_obj (Lambda)        (None, 64, 64, 1)            0         ['padded_obj_2[0][0]']        
2025-07-27 21:33:53,343 - INFO - trimmed_obj (Lambda)        (None, 64, 64, 1)            0         ['padded_obj_2[0][0]']
                                                                                                  
 distribution_lambda (Distr  ((None, 64, 64, 1),          0         ['tf.math.multiply_2[0][0]']  
2025-07-27 21:33:53,343 - INFO - distribution_lambda (Distr  ((None, 64, 64, 1),          0         ['tf.math.multiply_2[0][0]']
 ibutionLambda)               (None, 64, 64, 1))                                                  
…
