…
Please pass an integer value for `reinterpreted_batch_ndims`. The current behavior corresponds to `reinterpreted_batch_ndims=tf.size(distribution.batch_shape_tensor()) - 1`.
2025-07-22 17:17:10,461 - INFO - Model: "model"
2025-07-22 17:17:10,461 - INFO - __________________________________________________________________________________________________
2025-07-22 17:17:10,461 - INFO - Layer (type)                Output Shape                 Param #   Connected to
2025-07-22 17:17:10,461 - INFO - ==================================================================================================
2025-07-22 17:17:10,461 - INFO - input (InputLayer)          [(None, 64, 64, 4)]          0         []
2025-07-22 17:17:10,462 - INFO - tf.math.truediv (TFOpLambd  (None, 64, 64, 4)            0         ['input[0][0]']
2025-07-22 17:17:10,462 - INFO - a)
2025-07-22 17:17:10,462 - INFO - conv2d (Conv2D)             (None, 64, 64, 64)           2368      ['tf.math.truediv[0][0]']
2025-07-22 17:17:10,462 - INFO - conv2d_1 (Conv2D)           (None, 64, 64, 64)           36928     ['conv2d[0][0]']
2025-07-22 17:17:10,462 - INFO - max_pooling2d (MaxPooling2  (None, 32, 32, 64)           0         ['conv2d_1[0][0]']
2025-07-22 17:17:10,462 - INFO - D)
2025-07-22 17:17:10,462 - INFO - conv2d_2 (Conv2D)           (None, 32, 32, 128)          73856     ['max_pooling2d[0][0]']
2025-07-22 17:17:10,462 - INFO - conv2d_3 (Conv2D)           (None, 32, 32, 128)          147584    ['conv2d_2[0][0]']
2025-07-22 17:17:10,462 - INFO - max_pooling2d_1 (MaxPoolin  (None, 16, 16, 128)          0         ['conv2d_3[0][0]']
2025-07-22 17:17:10,462 - INFO - g2D)
2025-07-22 17:17:10,462 - INFO - conv2d_4 (Conv2D)           (None, 16, 16, 256)          295168    ['max_pooling2d_1[0][0]']
2025-07-22 17:17:10,462 - INFO - conv2d_5 (Conv2D)           (None, 16, 16, 256)          590080    ['conv2d_4[0][0]']
2025-07-22 17:17:10,462 - INFO - max_pooling2d_2 (MaxPoolin  (None, 8, 8, 256)            0         ['conv2d_5[0][0]']
2025-07-22 17:17:10,462 - INFO - g2D)
2025-07-22 17:17:10,462 - INFO - conv2d_8 (Conv2D)           (None, 8, 8, 128)            295040    ['max_pooling2d_2[0][0]']
2025-07-22 17:17:10,463 - INFO - conv2d_14 (Conv2D)          (None, 8, 8, 128)            295040    ['max_pooling2d_2[0][0]']
2025-07-22 17:17:10,463 - INFO - conv2d_9 (Conv2D)           (None, 8, 8, 128)            147584    ['conv2d_8[0][0]']
2025-07-22 17:17:10,463 - INFO - conv2d_15 (Conv2D)          (None, 8, 8, 128)            147584    ['conv2d_14[0][0]']
2025-07-22 17:17:10,463 - INFO - up_sampling2d (UpSampling2  (None, 16, 16, 128)          0         ['conv2d_9[0][0]']
2025-07-22 17:17:10,463 - INFO - D)
2025-07-22 17:17:10,463 - INFO - up_sampling2d_2 (UpSamplin  (None, 16, 16, 128)          0         ['conv2d_15[0][0]']
2025-07-22 17:17:10,463 - INFO - g2D)
2025-07-22 17:17:10,463 - INFO - conv2d_10 (Conv2D)          (None, 16, 16, 64)           73792     ['up_sampling2d[0][0]']
2025-07-22 17:17:10,463 - INFO - conv2d_16 (Conv2D)          (None, 16, 16, 64)           73792     ['up_sampling2d_2[0][0]']
2025-07-22 17:17:10,463 - INFO - conv2d_11 (Conv2D)          (None, 16, 16, 64)           36928     ['conv2d_10[0][0]']
2025-07-22 17:17:10,463 - INFO - conv2d_17 (Conv2D)          (None, 16, 16, 64)           36928     ['conv2d_16[0][0]']
2025-07-22 17:17:10,463 - INFO - up_sampling2d_1 (UpSamplin  (None, 32, 32, 64)           0         ['conv2d_11[0][0]']
2025-07-22 17:17:10,463 - INFO - g2D)
2025-07-22 17:17:10,463 - INFO - up_sampling2d_3 (UpSamplin  (None, 32, 32, 64)           0         ['conv2d_17[0][0]']
2025-07-22 17:17:10,463 - INFO - g2D)
2025-07-22 17:17:10,463 - INFO - tf.__operators__.getitem (  (None, 32, 32, 60)           0         ['up_sampling2d_1[0][0]']
2025-07-22 17:17:10,463 - INFO - SlicingOpLambda)
2025-07-22 17:17:10,464 - INFO - tf.__operators__.getitem_1  (None, 32, 32, 60)           0         ['up_sampling2d_3[0][0]']
2025-07-22 17:17:10,464 - INFO - (SlicingOpLambda)
2025-07-22 17:17:10,464 - INFO - conv2d_6 (Conv2D)           (None, 32, 32, 1)            541       ['tf.__operators__.getitem[0][
2025-07-22 17:17:10,464 - INFO - 0]']
2025-07-22 17:17:10,464 - INFO - conv2d_12 (Conv2D)          (None, 32, 32, 4)            2164      ['tf.__operators__.getitem_1[0
2025-07-22 17:17:10,464 - INFO - ][0]']
2025-07-22 17:17:10,464 - INFO - amp (Lambda)                (None, 32, 32, 1)            0         ['conv2d_6[0][0]']
2025-07-22 17:17:10,464 - INFO - phi (Lambda)                (None, 32, 32, 4)            0         ['conv2d_12[0][0]']
2025-07-22 17:17:10,464 - INFO - amp_padded (ZeroPadding2D)  (None, 64, 64, 1)            0         ['amp[0][0]']
2025-07-22 17:17:10,464 - INFO - phase_padded (ZeroPadding2  (None, 64, 64, 4)            0         ['phi[0][0]']
2025-07-22 17:17:10,464 - INFO - D)
2025-07-22 17:17:10,464 - INFO - obj (Lambda)                (None, 64, 64, 4)            0         ['amp_padded[0][0]',
2025-07-22 17:17:10,464 - INFO - 'phase_padded[0][0]']
2025-07-22 17:17:10,464 - INFO - input_positions (InputLaye  [(None, 1, 2, 4)]            0         []
2025-07-22 17:17:10,464 - INFO - r)
2025-07-22 17:17:10,464 - INFO - padded_obj_2 (Lambda)       (None, 78, 78, 1)            0         ['obj[0][0]',
2025-07-22 17:17:10,464 - INFO - 'input_positions[0][0]']
2025-07-22 17:17:10,464 - INFO - padded_objs_with_offsets (  (None, None, None, 1)        0         ['padded_obj_2[0][0]',
2025-07-22 17:17:10,465 - INFO - Lambda)                                                             'input_positions[0][0]']
2025-07-22 17:17:10,465 - INFO - probe_illumination (ProbeI  ((None, 64, 64, 1),          4096      ['padded_objs_with_offsets[0][
2025-07-22 17:17:10,465 - INFO - llumination)                 (1, 1, 64, 64, 1))                    0]']
2025-07-22 17:17:10,465 - INFO - pred_amplitude (Lambda)     ((None, 64, 64, 1),          0         ['probe_illumination[0][0]']
2025-07-22 17:17:10,465 - INFO - (None, 64, 64, 1))
2025-07-22 17:17:10,465 - INFO - pred_diff_channels (Lambda  (None, 64, 64, 4)            0         ['pred_amplitude[0][1]']
2025-07-22 17:17:10,465 - INFO - )
2025-07-22 17:17:10,465 - INFO - tf.math.multiply (TFOpLamb  (None, 64, 64, 4)            0         ['pred_diff_channels[0][0]']
2025-07-22 17:17:10,465 - INFO - da)
2025-07-22 17:17:10,465 - INFO - trimmed_obj (Lambda)        (None, 64, 64, 1)            0         ['padded_obj_2[0][0]']
2025-07-22 17:17:10,465 - INFO - distribution_lambda (Distr  ((None, 64, 64, 4),          0         ['tf.math.multiply[0][0]']
2025-07-22 17:17:10,465 - INFO - ibutionLambda)               (None, 64, 64, 4))
2025-07-22 17:17:10,465 - INFO - ==================================================================================================
2025-07-22 17:17:10,466 - INFO - Total params: 2259473 (8.63 MB)
…
