…
Please pass an integer value for `reinterpreted_batch_ndims`. The current behavior corresponds to `reinterpreted_batch_ndims=tf.size(distribution.batch_shape_tensor()) - 1`.
2025-07-25 01:09:11,512 - INFO - Model: "model"
2025-07-25 01:09:11,512 - INFO - __________________________________________________________________________________________________
2025-07-25 01:09:11,512 - INFO - Layer (type)                Output Shape                 Param #   Connected to
2025-07-25 01:09:11,512 - INFO - ==================================================================================================
2025-07-25 01:09:11,512 - INFO - input (InputLayer)          [(None, 64, 64, 1)]          0         []
2025-07-25 01:09:11,513 - INFO - tf.math.truediv (TFOpLambd  (None, 64, 64, 1)            0         ['input[0][0]']
2025-07-25 01:09:11,513 - INFO - a)
2025-07-25 01:09:11,513 - INFO - conv2d (Conv2D)             (None, 64, 64, 64)           640       ['tf.math.truediv[0][0]']
2025-07-25 01:09:11,513 - INFO - conv2d_1 (Conv2D)           (None, 64, 64, 64)           36928     ['conv2d[0][0]']
2025-07-25 01:09:11,513 - INFO - max_pooling2d (MaxPooling2  (None, 32, 32, 64)           0         ['conv2d_1[0][0]']
2025-07-25 01:09:11,513 - INFO - D)
2025-07-25 01:09:11,513 - INFO - conv2d_2 (Conv2D)           (None, 32, 32, 128)          73856     ['max_pooling2d[0][0]']
2025-07-25 01:09:11,513 - INFO - conv2d_3 (Conv2D)           (None, 32, 32, 128)          147584    ['conv2d_2[0][0]']
2025-07-25 01:09:11,513 - INFO - max_pooling2d_1 (MaxPoolin  (None, 16, 16, 128)          0         ['conv2d_3[0][0]']
2025-07-25 01:09:11,513 - INFO - g2D)
2025-07-25 01:09:11,513 - INFO - conv2d_4 (Conv2D)           (None, 16, 16, 256)          295168    ['max_pooling2d_1[0][0]']
2025-07-25 01:09:11,513 - INFO - conv2d_5 (Conv2D)           (None, 16, 16, 256)          590080    ['conv2d_4[0][0]']
2025-07-25 01:09:11,513 - INFO - max_pooling2d_2 (MaxPoolin  (None, 8, 8, 256)            0         ['conv2d_5[0][0]']
2025-07-25 01:09:11,513 - INFO - g2D)
2025-07-25 01:09:11,513 - INFO - conv2d_8 (Conv2D)           (None, 8, 8, 128)            295040    ['max_pooling2d_2[0][0]']
2025-07-25 01:09:11,514 - INFO - conv2d_16 (Conv2D)          (None, 8, 8, 128)            295040    ['max_pooling2d_2[0][0]']
2025-07-25 01:09:11,514 - INFO - conv2d_9 (Conv2D)           (None, 8, 8, 128)            147584    ['conv2d_8[0][0]']
2025-07-25 01:09:11,514 - INFO - conv2d_17 (Conv2D)          (None, 8, 8, 128)            147584    ['conv2d_16[0][0]']
2025-07-25 01:09:11,514 - INFO - up_sampling2d (UpSampling2  (None, 16, 16, 128)          0         ['conv2d_9[0][0]']
2025-07-25 01:09:11,514 - INFO - D)
2025-07-25 01:09:11,514 - INFO - up_sampling2d_3 (UpSamplin  (None, 16, 16, 128)          0         ['conv2d_17[0][0]']
2025-07-25 01:09:11,514 - INFO - g2D)
2025-07-25 01:09:11,514 - INFO - conv2d_10 (Conv2D)          (None, 16, 16, 64)           73792     ['up_sampling2d[0][0]']
2025-07-25 01:09:11,514 - INFO - conv2d_18 (Conv2D)          (None, 16, 16, 64)           73792     ['up_sampling2d_3[0][0]']
2025-07-25 01:09:11,514 - INFO - conv2d_11 (Conv2D)          (None, 16, 16, 64)           36928     ['conv2d_10[0][0]']
2025-07-25 01:09:11,514 - INFO - conv2d_19 (Conv2D)          (None, 16, 16, 64)           36928     ['conv2d_18[0][0]']
2025-07-25 01:09:11,514 - INFO - up_sampling2d_1 (UpSamplin  (None, 32, 32, 64)           0         ['conv2d_11[0][0]']
2025-07-25 01:09:11,514 - INFO - g2D)
2025-07-25 01:09:11,514 - INFO - up_sampling2d_4 (UpSamplin  (None, 32, 32, 64)           0         ['conv2d_19[0][0]']
2025-07-25 01:09:11,514 - INFO - g2D)
2025-07-25 01:09:11,515 - INFO - tf.__operators__.getitem_1  (None, 32, 32, 4)            0         ['up_sampling2d_1[0][0]']
2025-07-25 01:09:11,515 - INFO - (SlicingOpLambda)
2025-07-25 01:09:11,515 - INFO - tf.__operators__.getitem_4  (None, 32, 32, 4)            0         ['up_sampling2d_4[0][0]']
2025-07-25 01:09:11,515 - INFO - (SlicingOpLambda)
2025-07-25 01:09:11,515 - INFO - conv2d_12 (Conv2D)          (None, 32, 32, 64)           2368      ['tf.__operators__.getitem_1[0
2025-07-25 01:09:11,515 - INFO - ][0]']
2025-07-25 01:09:11,515 - INFO - conv2d_20 (Conv2D)          (None, 32, 32, 64)           2368      ['tf.__operators__.getitem_4[0
2025-07-25 01:09:11,515 - INFO - ][0]']
2025-07-25 01:09:11,515 - INFO - conv2d_13 (Conv2D)          (None, 32, 32, 64)           36928     ['conv2d_12[0][0]']
2025-07-25 01:09:11,515 - INFO - conv2d_21 (Conv2D)          (None, 32, 32, 64)           36928     ['conv2d_20[0][0]']
2025-07-25 01:09:11,515 - INFO - up_sampling2d_2 (UpSamplin  (None, 64, 64, 64)           0         ['conv2d_13[0][0]']
2025-07-25 01:09:11,515 - INFO - g2D)
2025-07-25 01:09:11,515 - INFO - up_sampling2d_5 (UpSamplin  (None, 64, 64, 64)           0         ['conv2d_21[0][0]']
2025-07-25 01:09:11,515 - INFO - g2D)
2025-07-25 01:09:11,515 - INFO - conv2d_7 (Conv2D)           (None, 64, 64, 1)            577       ['up_sampling2d_2[0][0]']
2025-07-25 01:09:11,515 - INFO - conv2d_15 (Conv2D)          (None, 64, 64, 1)            577       ['up_sampling2d_5[0][0]']
2025-07-25 01:09:11,516 - INFO - tf.nn.silu (TFOpLambda)     (None, 64, 64, 1)            0         ['conv2d_7[0][0]']
2025-07-25 01:09:11,516 - INFO - tf.nn.silu_1 (TFOpLambda)   (None, 64, 64, 1)            0         ['conv2d_15[0][0]']
2025-07-25 01:09:11,516 - INFO - tf.compat.v1.shape (TFOpLa  (4,)                         0         ['tf.nn.silu[0][0]']
2025-07-25 01:09:11,516 - INFO - mbda)
2025-07-25 01:09:11,516 - INFO - tf.compat.v1.shape_1 (TFOp  (4,)                         0         ['tf.nn.silu_1[0][0]']
2025-07-25 01:09:11,516 - INFO - Lambda)
2025-07-25 01:09:11,516 - INFO - tf.__operators__.getitem_2  ()                           0         ['tf.compat.v1.shape[0][0]']
2025-07-25 01:09:11,516 - INFO - (SlicingOpLambda)
2025-07-25 01:09:11,516 - INFO - tf.__operators__.getitem_5  ()                           0         ['tf.compat.v1.shape_1[0][0]']
2025-07-25 01:09:11,516 - INFO - (SlicingOpLambda)
2025-07-25 01:09:11,516 - INFO - tf.__operators__.getitem (  (None, 32, 32, 60)           0         ['up_sampling2d_1[0][0]']
2025-07-25 01:09:11,516 - INFO - SlicingOpLambda)
2025-07-25 01:09:11,516 - INFO - tf.ones (TFOpLambda)        (None, 32, 32, 1)            0         ['tf.__operators__.getitem_2[0
2025-07-25 01:09:11,516 - INFO - ][0]']
2025-07-25 01:09:11,516 - INFO - tf.__operators__.getitem_3  (None, 32, 32, 60)           0         ['up_sampling2d_4[0][0]']
2025-07-25 01:09:11,516 - INFO - (SlicingOpLambda)
2025-07-25 01:09:11,516 - INFO - tf.ones_1 (TFOpLambda)      (None, 32, 32, 1)            0         ['tf.__operators__.getitem_5[0
2025-07-25 01:09:11,516 - INFO - ][0]']
2025-07-25 01:09:11,516 - INFO - conv2d_6 (Conv2D)           (None, 32, 32, 1)            541       ['tf.__operators__.getitem[0][
2025-07-25 01:09:11,516 - INFO - 0]']
2025-07-25 01:09:11,517 - INFO - zero_padding2d (ZeroPaddin  (None, 64, 64, 1)            0         ['tf.ones[0][0]']
2025-07-25 01:09:11,517 - INFO - g2D)
2025-07-25 01:09:11,517 - INFO - conv2d_14 (Conv2D)          (None, 32, 32, 1)            541       ['tf.__operators__.getitem_3[0
2025-07-25 01:09:11,517 - INFO - ][0]']
2025-07-25 01:09:11,517 - INFO - zero_padding2d_1 (ZeroPadd  (None, 64, 64, 1)            0         ['tf.ones_1[0][0]']
2025-07-25 01:09:11,517 - INFO - ing2D)
2025-07-25 01:09:11,517 - INFO - amp (Lambda)                (None, 32, 32, 1)            0         ['conv2d_6[0][0]']
2025-07-25 01:09:11,517 - INFO - tf.math.subtract (TFOpLamb  (None, 64, 64, 1)            0         ['zero_padding2d[0][0]']
2025-07-25 01:09:11,517 - INFO - da)
2025-07-25 01:09:11,517 - INFO - phi (Lambda)                (None, 32, 32, 1)            0         ['conv2d_14[0][0]']
2025-07-25 01:09:11,517 - INFO - tf.math.subtract_1 (TFOpLa  (None, 64, 64, 1)            0         ['zero_padding2d_1[0][0]']
2025-07-25 01:09:11,517 - INFO - mbda)
2025-07-25 01:09:11,517 - INFO - amp_padded (ZeroPadding2D)  (None, 64, 64, 1)            0         ['amp[0][0]']
2025-07-25 01:09:11,517 - INFO - tf.math.multiply (TFOpLamb  (None, 64, 64, 1)            0         ['tf.nn.silu[0][0]',
2025-07-25 01:09:11,517 - INFO - da)                                                                 'tf.math.subtract[0][0]']
2025-07-25 01:09:11,517 - INFO - phase_padded (ZeroPadding2  (None, 64, 64, 1)            0         ['phi[0][0]']
2025-07-25 01:09:11,517 - INFO - D)
2025-07-25 01:09:11,517 - INFO - tf.math.multiply_1 (TFOpLa  (None, 64, 64, 1)            0         ['tf.nn.silu_1[0][0]',
2025-07-25 01:09:11,517 - INFO - mbda)                                                               'tf.math.subtract_1[0][0]']
2025-07-25 01:09:11,517 - INFO - tf.__operators__.add (TFOp  (None, 64, 64, 1)            0         ['amp_padded[0][0]',
2025-07-25 01:09:11,518 - INFO - Lambda)                                                             'tf.math.multiply[0][0]']
2025-07-25 01:09:11,518 - INFO - tf.__operators__.add_1 (TF  (None, 64, 64, 1)            0         ['phase_padded[0][0]',
2025-07-25 01:09:11,518 - INFO - OpLambda)                                                           'tf.math.multiply_1[0][0]']
2025-07-25 01:09:11,518 - INFO - obj (Lambda)                (None, 64, 64, 1)            0         ['tf.__operators__.add[0][0]',
2025-07-25 01:09:11,518 - INFO - 'tf.__operators__.add_1[0][0]
2025-07-25 01:09:11,518 - INFO - ']
2025-07-25 01:09:11,518 - INFO - input_positions (InputLaye  [(None, 1, 2, 1)]            0         []
2025-07-25 01:09:11,518 - INFO - r)
2025-07-25 01:09:11,518 - INFO - padded_obj_2 (Lambda)       (None, 74, 74, 1)            0         ['obj[0][0]',
2025-07-25 01:09:11,518 - INFO - 'input_positions[0][0]']
2025-07-25 01:09:11,518 - INFO - padded_objs_with_offsets (  (None, None, None, 1)        0         ['padded_obj_2[0][0]',
2025-07-25 01:09:11,518 - INFO - Lambda)                                                             'input_positions[0][0]']
2025-07-25 01:09:11,518 - INFO - probe_illumination (ProbeI  ((None, 64, 64, 1),          4096      ['padded_objs_with_offsets[0][
2025-07-25 01:09:11,518 - INFO - llumination)                 (1, 1, 64, 64, 1))                    0]']
2025-07-25 01:09:11,518 - INFO - pred_amplitude (Lambda)     ((None, 64, 64, 1),          0         ['probe_illumination[0][0]']
2025-07-25 01:09:11,518 - INFO - (None, 64, 64, 1))
2025-07-25 01:09:11,519 - INFO - pred_diff_channels (Lambda  (None, 64, 64, 1)            0         ['pred_amplitude[0][1]']
2025-07-25 01:09:11,519 - INFO - )
2025-07-25 01:09:11,519 - INFO - tf.math.multiply_2 (TFOpLa  (None, 64, 64, 1)            0         ['pred_diff_channels[0][0]']
2025-07-25 01:09:11,519 - INFO - mbda)
2025-07-25 01:09:11,519 - INFO - trimmed_obj (Lambda)        (None, 64, 64, 1)            0         ['padded_obj_2[0][0]']
2025-07-25 01:09:11,519 - INFO - distribution_lambda (Distr  ((None, 64, 64, 1),          0         ['tf.math.multiply_2[0][0]']
2025-07-25 01:09:11,519 - INFO - ibutionLambda)               (None, 64, 64, 1))
2025-07-25 01:09:11,519 - INFO - ==================================================================================================
2025-07-25 01:09:11,520 - INFO - Total params: 2335868 (8.93 MB)
…
